mi_modelo_kan.onnx (onnx, 157807 bytes, 2 tensors)

features.0.bias f4 [32]
000000 54 4e ff bd fd 6f 5d 3d e4 0b b6 3d cc da 05 3e
       -0.12466112 0.05406188 0.08888987 0.13071746
000010 35 71 ef 3d 6e a1 da 3d 6c 07 67 3d 5b c0 e4 bc
       0.116915144 0.106753215 0.056403562 -0.027923753
000020 1c d5 bb bc 1f 61 85 3d 7c 30 c1 bd 04 4e a9 bb
       -0.022928767 0.06512665 -0.09433076 -0.005166771
000030 04 71 02 3e 6d ee 31 be 6b 78 17 be ea aa 39 3e
       0.12738425 -0.17376108 -0.1479203 0.18131605
000040 35 e4 70 3d d0 c6 ab 3c a2 eb 34 be d5 c1 1d be
       0.058811385 0.020968825 -0.17668012 -0.15405972
000050 3f 51 ee bd 8c 89 25 3e 17 9d 13 be ba 24 30 bd
       -0.1163659 0.16165751 -0.14415394 -0.043003775
000060 b6 12 14 3d ed 34 10 be 9d 00 59 3d 54 a1 c9 bd
       0.036150657 -0.1408269 0.0529791 -0.09845224
000070 c0 22 b7 bd 9f 42 3a 3e e1 40 4c bc f9 48 2f 3e
       -0.08942175 0.18189476 -0.01246664 0.1711768

features.4.bias f4 [64]
000000 09 5e 1e bc 49 4b d0 bc 18 67 d9 3c 83 17 f6 bb
       -0.009665974 -0.025426524 0.026538417 -0.007510127
000010 bb ce b8 bc 16 e1 97 3c 85 a2 ca 3c 94 d4 8b 3c
       -0.022559514 0.018539947 0.024735698 0.017069139
000020 7a 0d f2 3c b9 77 66 3c 6d f4 a2 3b 48 11 a8 bc
       0.029547442 0.01406663 0.0049729855 -0.020516053
000030 e3 14 94 bc 5f a5 ce bc e0 29 05 3d 40 07 a4 bc
       -0.018076366 -0.02522534 0.03251064 -0.020022988
000040 ba a9 e6 bc d9 90 c2 bc ad 14 fa bc 3d ae 37 3d
       -0.028157104 -0.02375071 -0.030527437 0.0448439
000050 d4 58 0b 3c e2 ef 57 bc 93 70 00 3c 20 88 13 bd
       0.008505065 -0.013179751 0.00783934 -0.03601849
000060 1c 26 40 3d c4 13 38 bd b5 8d 29 3c d0 1d 4b 3b
       0.046911344 -0.044940725 0.010348727 0.0030993111
000070 9b 0d 80 3c 10 b4 d8 bc 64 48 0e bc fb be 88 3c
       0.015631488 -0.026453048 -0.008684251 0.01669263
000080 1d ef 09 3d d0 90 e9 3c 23 e9 94 3c 54 a4 43 3d
       0.0336753 0.028511435 0.018177575 0.047764137
000090 c4 ff 13 3d 64 c5 cc 3c 3e 9b 7a 3b 99 69 38 bb
       0.03613259 0.024996467 0.0038239504 -0.0028139113
0000a0 15 a4 00 bd 12 a1 1b 3d 97 00 50 bd bb 47 26 bd
       -0.03140648 0.037995405 -0.050781813 -0.04059575
0000b0 cf 8a 6d 3c d1 7b 7a bc b9 50 57 bd 7a d6 10 bd
       0.014498427 -0.015288309 -0.052567217 -0.03536079
0000c0 50 6d 8d 3c bd 67 34 bd 64 7c ba 3c a5 a2 cd 3b
       0.017264038 -0.044044245 0.022764392 0.0062754923
0000d0 e7 ef 9c 3c 6f e4 7d 3c 04 38 05 3d 79 85 56 3c
       0.019157363 0.015496357 0.032524124 0.013093346
0000e0 0a c7 63 bd 0e fe 65 3c 7d 32 52 bd 36 4f 56 bd
       -0.05560974 0.014037622 -0.05131768 -0.052321635
0000f0 26 b0 bf bb e7 59 6b bc b6 fe 8a 3c c0 b0 5d bd
       -0.005849856 -0.014364696 0.016967159 -0.05412364
